Layer (type)                 Output Shape              Param #   
=================================================================
lambda_1 (Lambda)            (None, 160, 320, 3)       0         
_________________________________________________________________
cropping2d_1 (Cropping2D)    (None, 80, 320, 3)        0         
_________________________________________________________________
conv2d_1 (Conv2D)            (None, 38, 158, 24)       1824      
_________________________________________________________________
conv2d_2 (Conv2D)            (None, 17, 77, 36)        21636     
_________________________________________________________________
conv2d_3 (Conv2D)            (None, 7, 37, 48)         43248     
_________________________________________________________________
conv2d_4 (Conv2D)            (None, 5, 35, 64)         27712     
_________________________________________________________________
conv2d_5 (Conv2D)            (None, 3, 33, 64)         36928     
_________________________________________________________________
flatten_1 (Flatten)          (None, 6336)              0         
_________________________________________________________________
dense_1 (Dense)              (None, 100)               633700    
_________________________________________________________________
dense_2 (Dense)              (None, 50)                5050      
_________________________________________________________________
dense_3 (Dense)              (None, 10)                510       
_________________________________________________________________
dense_4 (Dense)              (None, 1)                 11        
=================================================================
Total params: 770,619
Trainable params: 770,619
Non-trainable params: 0

1. Track 1 with side images
Train on 72690 samples, validate on 8077 samples
Epoch 1/5
72690/72690 [==============================] - 40s 544us/step - loss: 0.0648 - acc: 0.0393 - val_loss: 0.0567 - val_acc: 0.0193
Epoch 2/5
72690/72690 [==============================] - 38s 525us/step - loss: 0.0647 - acc: 0.0393 - val_loss: 0.0567 - val_acc: 0.0193
…
